…
     "iopub.status.idle": "2025-02-11T16:25:17.151000Z",
     "shell.execute_reply": "2025-02-11T16:25:17.150231Z"
    },
    "papermill": {
     "duration": 0.301136,
     "end_time": "2025-02-11T16:25:17.152235",
     "exception": false,
     "start_time": "2025-02-11T16:25:16.851099",
     "status": "completed"
    },
    "tags": []
   },
   "outputs": [
    {
     "data": {
      "text/plain": [
       "ViTForImageClassification(\n",
       "  (vit): ViTModel(\n",
       "    (embeddings): ViTEmbeddings(\n",
       "      (patch_embeddings): ViTPatchEmbeddings(\n",
       "        (projection): Conv2d(3, 768, kernel_size=(16, 16), stride=(16, 16))\n",
       "      )\n",
       "      (dropout): Dropout(p=0.0, inplace=False)\n",
       "    )\n",
       "    (encoder): ViTEncoder(\n",
       "      (layer): ModuleList(\n",
       "        (0-11): 12 x ViTLayer(\n",
       "          (attention): ViTSdpaAttention(\n",
       "            (attention): ViTSdpaSelfAttention(\n",
       "              (query): Linear(in_features=768, out_features=768, bias=True)\n",
       "              (key): Linear(in_features=768, out_features=768, bias=True)\n",
       "              (value): Linear(in_features=768, out_features=768, bias=True)\n",
       "              (dropout): Dropout(p=0.0, inplace=False)\n",
       "            )\n",
       "            (output): ViTSelfOutput(\n",
       "              (dense): Linear(in_features=768, out_features=768, bias=True)\n",
       "              (dropout): Dropout(p=0.0, inplace=False)\n",
       "            )\n",
       "          )\n",
       "          (intermediate): ViTIntermediate(\n",
       "            (dense): Linear(in_features=768, out_features=3072, bias=True)\n",
       "            (intermediate_act_fn): GELUActivation()\n",
       "          )\n",
       "          (output): ViTOutput(\n",
       "            (dense): Linear(in_features=3072, out_features=768, bias=True)\n",
       "            (dropout): Dropout(p=0.0, inplace=False)\n",
       "          )\n",
       "          (layernorm_before): LayerNorm((768,), eps=1e-12, elementwise_affine=True)\n",
       "          (layernorm_after): LayerNorm((768,), eps=1e-12, elementwise_affine=True)\n",
       "        )\n",
       "      )\n",
       "    )\n",
       "    (layernorm): LayerNorm((768,), eps=1e-12, elementwise_affine=True)\n",
       "  )\n",
       "  (classifier): Linear(in_features=768, out_features=8, bias=True)\n",
       ")"
      ]
     },
     "execution_count": 12,
     "metadata": {},
     "output_type": "execute_result"
    }
   ],
   "source": [
    "model.to(device)"
   ]
  },
  {
   "cell_type": "code",
   "execution_count": 13,
   "id": "05a473fe",
   "metadata": {
    "execution": {
     "iopub.execute_input": "2025-02-11T16:25:17.164726Z",
     "iopub.status.busy": "2025-02-11T16:25:17.164463Z",
…
